…
.111282Z"}},"outputs":[{"name":"stdout","text":"Model: \"model_4\"\n__________________________________________________________________________________________________\nLayer (type)                    Output Shape         Param #     Connected to                     \n==================================================================================================\ninput_7 (InputLayer)            [(None, 24, 3)]      0                                            \n__________________________________________________________________________________________________\nlstm_38 (LSTM)                  (None, 24, 50)       10800       input_7[0][0]                    \n__________________________________________________________________________________________________\nbatch_normalization (BatchNorma (None, 24, 50)       200         lstm_38[0][0]                    \n__________________________________________________________________________________________________\nlstm_39 (LSTM)                  (None, 24, 50)       20200       batch_normalization[0][0]        \n__________________________________________________________________________________________________\nbatch_normalization_1 (BatchNor (None, 24, 50)       200         lstm_39[0][0]                    \n__________________________________________________________________________________________________\nattention_5 (Attention)         (None, 24, 50)       1           batch_normalization_1[0][0]      \n                                                                 batch_normalization_1[0][0]      \n__________________________________________________________________________________________________\nmultiply_4 (Multiply)           (None, 24, 50)       0           batch_normalization_1[0][0]      \n                                                                 attention_5[0][0]                \n__________________________________________________________________________________________________\nlstm_40 (LSTM)                  (None, 24, 50)       20200       multiply_4[0][0]                 \n__________________________________________________________________________________________________\nbatch_normalization_2 (BatchNor (None, 24, 50)       200         lstm_40[0][0]                    \n__________________________________________________________________________________________________\nlstm_41 (LSTM)                  (None, 24, 50)       20200       batch_normalization_2[0][0]      \n__________________________________________________________________________________________________\nbatch_normalization_3 (BatchNor (None, 24, 50)       200         lstm_41[0][0]                    \n__________________________________________________________________________________________________\nattention_6 (Attention)         (None, 24, 50)       1           batch_normalization_3[0][0]      \n                                                                 batch_normalization_3[0][0]      \n__________________________________________________________________________________________________\nmultiply_5 (Multiply)           (None, 24, 50)       0           batch_normalization_3[0][0]      \n                                                                 attention_6[0][0]                \n__________________________________________________________________________________________________\nlstm_42 (LSTM)                  (None, 50)           20200       multiply_5[0][0]                 \n__________________________________________________________________________________________________\ndense_12 (Dense)                (None, 25)           1275        lstm_42[0][0]                    \n__________________________________________________________________________________________________\ndense_13 (Dense)                (None, 3)            78          dense_12[0][0]                   \n==================================================================================================\nTotal params: 93,755\nTrainable params: 93,355\nNon-trainable params: 400\n__________________________________________________________________________________________________\n","output_type":"stream"}],"execution_count":90},{"cell_type":"code","source":"p
…
